models/acoustic_model/vietnamese/JasperDecoderForCTC-STEP-289936.pt (torch_old, 373723 bytes, 2 tensors)

decoder_layers.0.weight f4 [91, 1024, 1]
0	0xbd0e9e13	-0.03481872
1	0x3d3cdd0d	0.046109248
2	0x3dcb68e9	0.099321194
3	0x3d871893	0.06596484
4	0x3d2c1d27	0.04201999
5	0x3e951ad8	0.29122043
6	0xbd10ab5a	-0.035319664
7	0x3c775b29	0.015097418
8	0x3b8a8db8	0.00422832
9	0x3d222b81	0.03959227
10	0x3c383db4	0.01124518
11	0x3d8af1d4	0.06784406
12	0xbc75bcd5	-0.014998634
13	0x3d05680e	0.032569937
14	0x3d52c751	0.051459614
15	0x3e1a8c92	0.15092686
16	0x3d50196b	0.05080549
17	0x3d859997	0.065234356
18	0x3bcc7564	0.00623958
19	0xbe161a2e	-0.14658424
20	0x3d17e70b	0.037085574
21	0x3d747a94	0.059687212
22	0xbc6734cd	-0.01411171
23	0x3d5199f3	0.051172208
24	0x3d93d3ad	0.07218108
25	0x3db81eca	0.089902475
26	0xbcb524af	-0.022112219
27	0x3ae0c07a	0.0017147206
28	0x3d0d2e53	0.034468006
29	0xbd193676	-0.037405454
30	0x3d21308e	0.039352946
31	0x3cca5dba	0.024702895
32	0xbd413ae9	-0.04717532
33	0xbd265d47	-0.0406163
34	0x3d973a6e	0.073841915
35	0x3d929c14	0.07158676
36	0x3c005b69	0.007834294
37	0x3d1f4b7a	0.03889034
38	0x3df38291	0.11890138
39	0x3dfa2ddb	0.122157775
40	0xbd805b84	-0.06267455
41	0x3c0fdc19	0.008780503
42	0xbde06c24	-0.10958126
43	0xbd973273	-0.07382669
44	0xbcef2229	-0.029191094
45	0xbd69ff73	-0.05712838
46	0x3d8925b5	0.06696645
47	0xbe0b486f	-0.1360185
48	0xbd159fc9	-0.036529336
49	0x3d4b4306	0.049624465
50	0x3d224ed3	0.039625954
51	0xbc969bc1	-0.018384816
52	0x3dafaaa4	0.08577469
53	0x3dac3457	0.084084205
54	0x3dc5cb0d	0.096578695
55	0x3bb94c81	0.005654872
56	0xbd897444	-0.06711629
57	0x3dde76b0	0.108624816
58	0xbdced4d6	-0.10099189
59	0xbc871452	-0.016489182
60	0x3db015aa	0.08597882
61	0xbe4821ea	-0.19544187
62	0x3d88fa51	0.06688369
63	0x3c8048a8	0.015659645
64	0x3e037af7	0.12839876
65	0xbc9740f1	-0.018463584
66	0xbe12cf20	-0.14336824
67	0xbcd3d34c	-0.02585759
68	0x3cd61c72	0.02613661
69	0xbd39c2e7	-0.04535189
70	0x3cfc3d08	0.03079082
71	0x3ccc6dde	0.024954733
72	0x3cce3b75	0.025174836
73	0x3d83f9f1	0.06444157
74	0x3b67a34d	0.0035345138
75	0x3e1399eb	0.14414184
76	0x3d57fbe5	0.05273046
77	0x3d0b6488	0.03403142
78	0xbd2d4755	-0.042304356
79	0x3c5d9e60	0.013526529
80	0xbc49496b	-0.012285571
81	0x3ce05e8b	0.027388832
82	0x3d2108d4	0.03931506
83	0x3cb3f150	0.021965653
84	0x3e121aa7	0.1426798
85	0xbd9a4900	-0.07533455
86	0x3d44e0ea	0.048066057
87	0x3d313d94	0.043271616
88	0x3e051f92	0.13000324
89	0x3d997c95	0.07494465
90	0xbc7f1dc3	-0.015571061
91	0xbd69bda2	-0.057065614
92	0x3d821199	0.06351013
93	0x3d16b6ca	0.036795415
94	0x3e02a1ed	0.12757082
95	0x3cbe182f	0.023204891
96	0x3d273415	0.040821154
97	0x3d244a19	0.040109728
98	0xbd011b14	-0.031519964
99	0x3d41fe7b	0.047361832
100	0x3d8653b0	0.06558931
101	0xbe038969	-0.12845387
102	0x3df6eda9	0.12057049
103	0x3d811cc4	0.06304315
104	0x3c5bd29e	0.013416914
105	0xbce26fbf	-0.027641175
106	0xbdc9f59d	-0.098613
107	0xbc814521	-0.015780034
108	0xbd4a0f1d	-0.04933082
109	0xbd70bf60	-0.05877626
110	0xbae93bcd	-0.0017794311
111	0xbcb77ccf	-0.02239838
112	0x3cc07205	0.023491869
113	0x3ded9683	0.116009735
114	0xbcab2818	-0.020893142
115	0x3d239a05	0.039941806
116	0xbd0d6b48	-0.03452614
117	0xbdd837b6	-0.10557501
118	0xbcf123a8	-0.029435948
119	0x3e1e8d07	0.15483485
120	0xbb2c3b8e	-0.0026280615
121	0x3dc5a399	0.096503444
122	0x3e9449fa	0.2896269
123	0xbd0b46c6	-0.03400304
124	0xbb1686ed	-0.0022968606
125	0xbc0f54c6	-0.008748239
126	0xbd29b7e8	-0.041435152
127	0xbcedc154	-0.02902285
128	0x3d246042	0.04013086
129	0x3d511a7d	0.05105065
130	0xbcf7470f	-0.03018525
131	0x3e3786fc	0.17922586
132	0xbd43e25a	-0.047823288
133	0x3c09c97d	0.008409855
134	0xbb761f52	-0.003755529
135	0x3dcf1213	0.10110869
136	0x3c311dfb	0.010810371
137	0xbd792be8	-0.060832888
138	0xbecb54d1	-0.39713147
139	0x3dd0dd5a	0.101984695
140	0xbc35b965	-0.011091565
141	0xbe318e76	-0.17339501
142	0xbca6ed17	-0.020376725
143	0x3e035f0b	0.12829225
144	0x3c19a497	0.00937762
145	0x39de7b51	0.00042435018
146	0x3d12b0f6	0.035813294
147	0xbcc1bec5	-0.023650536
148	0x3cd7f6cd	0.026362801
149	0x3d8f2097	0.06988638
150	0xbe0f5969	-0.13998951
151	0x3e60fee6	0.21972236
152	0xbd39f4d9	-0.04539952
153	0x3b103508	0.0022004265
154	0x3c59f612	0.013303297
155	0x3c713f49	0.014724561
156	0xbca181d7	-0.019715233
157	0xbd1090fc	-0.035294518
158	0xbc83c616	-0.016085666
159	0x3cf96f63	0.030448621
160	0x3d9c8868	0.07643205
161	0xbd046635	-0.032324035
162	0xbbc5d0db	-0.0060368604
163	0xbcf72d00	-0.030172825
164	0x3cba1908	0.022717014
165	0x3dfeec34	0.12447396
166	0x3ca5abd2	0.020223532
167	0x3d57ce40	0.05268693
168	0xbe0096ac	-0.12557477
169	0x3c4be7aa	0.01244537
170	0x3c772233	0.015083837
171	0x3a115145	0.0005543421
172	0x3ceaac58	0.028646633
173	0xbc847861	-0.016170682
174	0x3c8b1da0	0.0169819
175	0x3cdbfa89	0.026852863
176	0x3d1584a2	0.03650344
177	0x3e0b62b9	0.13611878
178	0x3d830cbb	0.063989125
179	0x3d2ee893	0.04270227
180	0x3cb01f48	0.021499291
181	0x3dc55cb0	0.09636819
182	0x3bfb5c48	0.007670913
183	0xbcbc18e3	-0.022961086
184	0xbf1182c6	-0.5684017
185	0xbcd64e75	-0.026160458
186	0x3d41323a	0.04716704
187	0xbd12e12c	-0.035859272
188	0x3cadf9bf	0.021237252
189	0x3d45981a	0.04824076
190	0x3da4e2ad	0.080510475
191	0xbca78ba5	-0.02045233
192	0x3d5ace02	0.05341912
193	0xbd3f044a	-0.04663495
194	0xbd79c307	-0.06097701
195	0xbb37ad4a	-0.0028026872
196	0x3cd534a9	0.026026087
197	0xbd4b1633	-0.049581718
198	0x3dc9b18b	0.09848317
199	0x3c70241a	0.014657045
200	0xbdd145ed	-0.102184154
201	0xbdd2600a	-0.10272224
202	0xbd48d685	-0.049032707
203	0x3dfb443c	0.12268874
204	0xbdced5f8	-0.10099405
205	0x3d158893	0.0365072
206	0xbcd80637	-0.026370151
207	0x3e20a888	0.1568929
208	0x3c27fb4f	0.010252788
209	0x3cc94989	0.024571197
210	0x3e00f3c3	0.12592988
211	0x3dc85e19	0.09783573
212	0x3d84c9f6	0.064838335
213	0x3d44aabe	0.048014395
214	0xbd82a576	-0.063792154
215	0xbc9b1889	-0.018932598
216	0x3ca70b9e	0.020391282
217	0xbce13bb5	-0.02749429
218	0x3dfce42a	0.12348206
219	0x3da7631c	0.081732005
220	0x3dc36fa1	0.09542776
221	0xbd0c1d85	-0.03420784
222	0xbbcb6455	-0.006207029
223	0x3dacbd09	0.08434493
224	0x3ddf5896	0.10905568
225	0x3c6ad96a	0.014334062
226	0xbd26973b	-0.04067157
227	0x3cad58d9	0.02116053
228	0xbd46fcde	-0.048580997
229	0xbd06569b	-0.032797437
230	0x3d880cc1	0.066430576
231	0xbcbc93e3	-0.023019737
232	0xbbec238b	-0.0072063855
233	0xbc439f1e	-0.011939792
234	0x3cd8e9b0	0.026478618
235	0xbb94c3a0	-0.004539922
236	0xbab0ee2c	-0.0013498715
237	0xbd9ac819	-0.07557697
238	0x3cc8ac63	0.024496263
239	0x3e14fed0	0.14550328
240	0x3d6c0d59	0.057629917
241	0xbb856baa	-0.0040716724
242	0xbcf3d5e3	-0.029765075
243	0xbdd0cc7d	-0.10195253
244	0xbd1159f6	-0.035486184
245	0x3d912d66	0.07088737
246	0x3ce143b3	0.027498102
247	0x3c70ee63	0.014705273
248	0x3d5be21c	0.05368243
249	0x3d3ef5d0	0.046621144
250	0x3d318eb6	0.04334899
251	0x3b917111	0.0044385274
252	0xbe77529f	-0.24152611
253	0xbcb2f812	-0.021846805
254	0x3ccf676e	0.025317874
255	0x3c85c7fa	0.016330708

decoder_layers.0.bias f4 [91]
0	0x3fd50485	1.6642004
1	0x3f506030	0.8139677
2	0x3dc699c0	0.09697294
3	0x3f872c0d	1.0560318
4	0x3f0dc943	0.55385226
5	0x3ec8c46e	0.39212364
6	0x3f461b66	0.77385557
7	0x3f5c36cb	0.8602111
8	0x3f0a1f77	0.5395426
9	0x3ed7677b	0.42071137
10	0x3f25a3ab	0.6470286
11	0x3edf4321	0.43605903
12	0x3fbca9fa	1.4739373
13	0x3e5930ec	0.21210068
14	0x3e8e1c8e	0.2775616
15	0xbe3516ae	-0.17684433
16	0x3e607c35	0.21922381
17	0x3e4a12d5	0.19733746
18	0x3f7bf39d	0.984186
19	0x3ebb6e72	0.366077
20	0x3f1221a4	0.5708258
21	0xbe68aa46	-0.22721204
22	0xbe047c7f	-0.12938116
23	0x3f4b6fe5	0.7946761
24	0x3ef1bf95	0.47216478
25	0x3d915701	0.07096673
26	0xbef1cdef	-0.47227427
27	0xbefefd9c	-0.49802864
28	0xbe5a137c	-0.21296495
29	0x3e9e77bb	0.30950722
30	0x3e9edc6f	0.31027552
31	0x3dcc2149	0.09967286
32	0xbeb56aea	-0.3543313
33	0x3ea8ffc0	0.33007622
34	0x3f11cf12	0.5695659
35	0xbf50cce8	-0.8156266
36	0xbebc766b	-0.36809096
37	0xbd8429df	-0.06453299
38	0xbf02d451	-0.5110522
39	0xbe35f624	-0.17769676
40	0x3edb64e8	0.42850423
41	0xbeffbb10	-0.49947405
42	0xbe819337	-0.2530763
43	0xbdebac3e	-0.11507462
44	0xbc051869	-0.008123496
45	0x3e8f50c4	0.27991307
46	0x3e9b979a	0.303891
47	0x3d230f4c	0.03980951
48	0xbe20ef34	-0.15716249
49	0xbef291c5	-0.47376838
50	0xbf0464bc	-0.5171621
51	0x3d3f1df7	0.046659436
52	0xbe8b7fd7	-0.27245972
53	0xbed96088	-0.4245646
54	0xbf400111	-0.7500163
55	0xbf576227	-0.84134144
56	0xbf171975	-0.5902322
57	0xbf1d4026	-0.6142601
58	0xbf090740	-0.5352669
59	0xbf11a941	-0.56898886
60	0x3cfc40f1	0.030792685
61	0xbe915d71	-0.28391603
62	0xbdc9c079	-0.09851164
63	0xbf241e2c	-0.6410854
64	0x3cfd284f	0.03090301
65	0xbeefa907	-0.46808645
66	0x3d632a49	0.05546025
67	0xbee669e1	-0.45002654
68	0xbe12e439	-0.14344873
69	0x3e349ab3	0.17637138
70	0x3e53bcd7	0.20677505
71	0xbe519247	-0.20465957
72	0xbeb8ce72	-0.36095005
73	0x3d95ff7d	0.07324121
74	0xbe0f3e82	-0.13988689
75	0x3e1342a8	0.14380896
76	0xbe1a8b1c	-0.15092129
77	0xbf2822ae	-0.65677917
78	0xbe8432c4	-0.2581998
79	0xbddbef1f	-0.10738968
80	0xbe82ee4d	-0.25572434
81	0xbebdc37c	-0.37063205
82	0xbf1d7223	-0.61502284
83	0xbdbd4265	-0.092411794
84	0xbe10333a	-0.14082041
85	0xbe3b9a0d	-0.18320484
86	0xbf4b9644	-0.7952616
87	0xbf831d92	-1.0243399
88	0xbf42d108	-0.76100206
89	0xbed91dc6	-0.42405528
90	0x3fee0279	1.8594505
