models/acoustic_model/english/JasperDecoderForCTC-STEP-247400.pt (torch_old, 119568 bytes, 2 tensors)

decoder_layers.0.weight f4 [29, 1024, 1]
000000 f9 e7 47 3d 52 92 e9 3c 7a fa 86 3d e5 86 ab 3d
       0.04880521 0.028512154 0.06590743 0.083753385
000010 1f 8d b0 3d 68 01 07 3d 3d 67 8c bd 6c a0 69 bc
       0.08620667 0.032960325 -0.06855629 -0.014259439
000020 29 16 9f 3d f0 f3 71 bd 0d 3f 0c 3d 17 7b 89 3d
       0.077678986 -0.059070528 0.034239817 0.06712931
000030 6c be c9 bd b9 27 de 3c d0 e2 96 bd 48 83 24 3e
       -0.09850773 0.02711855 -0.0736748 0.16065705
000040 27 3c c9 3d 59 86 7e 3d 72 e9 35 bc d7 3a a2 bd
       0.09825926 0.062139843 -0.011103021 -0.07921379
000050 7f 42 e6 bc ae ff 87 3c 7e 7c 85 3d 55 d2 44 3d
       -0.02810788 0.01660141 0.065178856 0.04805215
000060 38 8e e6 bb e7 7d 9d 3c 40 93 5a 3d 9e c2 fd 3c
       -0.0070359968 0.019225074 0.053363085 0.03097659
000070 b7 df 89 bd 39 7a 1c 3d 28 bf b3 3c f7 64 f7 bc
       -0.06732123 0.038202498 0.021941736 -0.030199511
000080 b3 be 37 3d d4 fb 17 3d 12 b6 78 3d c0 44 33 bd
       0.0448596 0.037105396 0.06072051 -0.043766737
000090 fd 67 49 bc e3 b6 27 3c 22 d2 31 3d e5 30 f0 3c
       -0.012292859 0.010236475 0.04341329 0.02932019
0000a0 f1 b0 9f 3a a9 cf 7e bd 16 75 b3 bc 5d ee f7 3c
       0.001218347 -0.06220976 -0.021906417 0.030265028
0000b0 ea 83 9b 3c 8c 14 6a 3d e1 35 f0 3c 66 a3 4f 3d
       0.0189838 0.0571485 0.029322566 0.05069294
0000c0 65 1b 30 3c 29 c3 eb 3c 8d fa 0a 3d 81 f2 5d 3d
       0.010748719 0.028779583 0.03393035 0.054186348
0000d0 5f 88 f8 bd 70 73 09 3d 7f dc 16 3e f4 ee 4b 3d
       -0.12135386 0.033557355 0.1473255 0.04978843
0000e0 36 51 ee bd 66 ce 97 bc 46 cf 44 3b bb 08 80 3d
       -0.116365835 -0.018531036 0.003003077 0.06251665
0000f0 b9 c4 c5 3d 14 b4 63 3d f5 fc 58 3d 8e d5 5a bd
       0.096566625 0.055591658 0.052975614 -0.053426318
000100 ba e8 9d 3d 4e 06 db bd 92 7f c7 3c 1a 60 89 3d
       0.07710405 -0.10694562 0.024352822 0.06707783
000110 36 7f 21 bc eb ea 14 3d ad b2 5f 3d 03 a3 f8 3d
       -0.00985699 0.036356848 0.054613758 0.12140467
000120 fd 49 bd 3c 0e da 4f 3d db 9a 43 3d 14 4f e7 3d
       0.02310657 0.050745063 0.047755104 0.1129438
000130 46 f8 23 3d 48 ed 1d bd c7 bf 46 be 9b ee 52 3d
       0.040031694 -0.038556367 -0.19409095 0.051497083
000140 ba f7 a5 3c 6a cc d1 bc 10 1c 15 3d 95 52 0c 3e
       0.020259727 -0.025610168 0.036403716 0.13703378
000150 2a e2 c8 bd 8e cd 27 3e d7 c3 4e bd c4 ca 63 3d
       -0.09808762 0.16387007 -0.050479736 0.055613294
000160 d3 83 07 bd 89 6f 97 3d dd 4d 64 bc c9 c3 d7 bd
       -0.0330847 0.073943205 -0.01393458 -0.1053539
000170 12 2b 81 3c f9 1b ca 3b 1a fe f2 3d da 8d b1 3c
       0.015767608 0.0061678854 0.11864872 0.021674085
000180 f1 ec e1 bd 01 e3 72 bd d9 7a 89 3c 5f 95 12 bd
       -0.11031521 -0.05929852 0.016782211 -0.035786983
000190 31 46 19 bd 3d 8c 50 3d f5 41 db bd 90 cd 9c bc
       -0.037420455 0.05091499 -0.1070594 -0.019140989
0001a0 c8 0d 70 bd 55 07 67 3c 1f d0 35 bd 04 37 19 3e
       -0.058606893 0.014100869 -0.044387933 0.14962393
0001b0 8b 8c 18 3d 4d 75 dd bc ec df 1c 3d 64 36 84 3d
       0.037243407 -0.027033472 0.038299486 0.06455687
0001c0 78 6a cb 3d 6a 04 21 3d 2f 1b e4 bd 72 49 93 bb
       0.09932417 0.03931085 -0.11137997 -0.0044948393
0001d0 49 e8 66 bd 51 44 18 3e 68 43 76 bc bd 6b 88 3d
       -0.05637387 0.1486981 -0.015030719 0.066611744
0001e0 e1 17 77 3d 0c eb 8b 3d 0f cd fb bc 10 9c ed 3c
       0.060325507 0.06831941 -0.030737428 0.02900508
0001f0 e6 27 34 bd 0c 06 1d bd 6c ed 33 3d e3 b9 11 3c
       -0.043983363 -0.038335845 0.043927595 0.0088944165
000200 9b 37 93 3d 63 7f cb bd 9a a1 3f 3d 8a 0e 49 3d
       0.0718834 -0.099364065 0.046784975 0.04908613
000210 c8 e8 6d bb 61 73 86 3d 89 ad 55 3c fc 10 f1 3d
       -0.0036302079 0.065649755 0.013041862 0.11770818
000220 4b 3e 88 3d 3f 4a 96 3a fe d9 25 bd 37 73 33 3e
       0.066525064 0.0011466219 -0.040491097 0.1752442
000230 22 20 6b be ec c0 86 3e cc cd 26 3d 0f e3 b8 bd
       -0.22961476 0.26319063 0.040723607 -0.09027683
000240 1a a8 db bc fb 7b 27 3d 66 6d c4 bd f8 8c 7a 3d
       -0.026813556 0.04088972 -0.095911786 0.061169595
000250 a9 49 06 be 9d 91 97 bd d3 05 6f bc ff 8b 84 3d
       -0.13114037 -0.074008204 -0.014588791 0.06472015
000260 cc 1c 12 bd 6d 4b f1 b9 a1 8b 5f 3d a7 1d 08 bc
       -0.035671994 -0.000460233 0.05457652 -0.008307851
000270 a5 0a c9 be 88 51 57 3d aa 6f 9b 3d fe 84 1c 3d
       -0.39265934 0.05256799 0.075896576 0.03821277
000280 de d7 40 bc 16 bb 27 3d a9 ca 06 3d a7 03 98 bd
       -0.011770217 0.040949903 0.032908116 -0.07422572
000290 1d 1d 45 bb 8d 8c 2c 3d 37 0d 6d 3d 0f 81 a4 3d
       -0.0030077167 0.042126227 0.05787393 0.080324285
0002a0 a8 3d 3e 3d 8b b2 0a 3c cf 1b b2 3d 20 44 c4 bc
       0.04644552 0.0084654195 0.0869671 -0.023958266
0002b0 0c 56 8e 3d 76 58 78 bd 06 16 7f bd 96 b9 fe bd
       0.06950006 -0.060631238 -0.062276863 -0.124377415
0002c0 8e f8 0b 3d a7 d1 cd 3d 33 65 ab bc a5 9a 0b bd
       0.034172587 0.10049754 -0.020922279 -0.034083027
0002d0 75 8e 8d 3e 25 af 8c 3d 33 9d ac 3d b9 57 a6 3d
       0.2764775 0.06869344 0.08428421 0.081222005
0002e0 bd 43 53 3c c1 bd 5a 3d 33 a3 c3 bc dc f7 57 bd
       0.012894568 0.05340362 -0.02388153 -0.05272661
0002f0 86 3c cc 3d 32 ca be bd b3 e5 b2 3d ff ce 3a 3d
       0.099724814 -0.093159094 0.08735218 0.045607563
000300 04 00 96 3d 20 9c 2f be 75 74 fa bd 81 76 87 3d
       0.07324222 -0.171494 -0.12229244 0.066144
000310 72 97 89 be 6a b8 0a bd 0e 53 64 3d 2a 43 78 bd
       -0.26873356 -0.033867277 0.05574327 -0.060610928
000320 eb 4a 66 3d c8 f2 01 3b 78 75 1d 3d d4 d5 15 be
       0.05622379 0.0019828547 0.038442105 -0.1463235
000330 c0 65 a0 bd fb 35 69 3d 86 78 7f 3d 05 fa e4 3c
       -0.07831907 0.056936245 0.0623708 0.02795125
000340 9e 89 0d 3d 44 c9 8f 3d e7 cf c6 3c aa 92 84 3d
       0.03455507 0.0702081 0.024269057 0.064732864
000350 a5 45 db 3d bb 0d d2 bd fa 5d 28 bd 6d 50 21 3c
       0.10706643 -0.10256525 -0.041105248 0.009845835
000360 ad bc 39 3c 5a ca 41 bd 67 3e 4b b8 97 9a 48 3d
       0.011336488 -0.047312118 -4.845709e-05 0.048975553
000370 9f 4f 86 3e 12 06 d3 3c 41 08 f6 bc c1 f7 1f 3e
       0.2623262 0.02575973 -0.030033233 0.15621854
000380 99 eb 16 3d d7 30 91 3d 2c c8 bc bd 11 3a f5 3c
       0.036845777 0.070893936 -0.09217867 0.029934915
000390 2d 05 8b 3d 62 d0 fb bc 85 e0 1c 3e 27 7f f7 bd
       0.067880966 -0.030739013 0.15320022 -0.12084799
0003a0 fc c8 b4 bd 1b a6 6d bc 15 f2 19 3c de 41 78 3b
       -0.08827397 -0.014504935 0.009396096 0.0037881057
0003b0 87 1f 97 bd 0f a1 8b 3d 21 08 8b bd 33 b3 f4 bc
       -0.0737906 0.06817829 -0.0678866 -0.029870605
0003c0 c4 11 a3 3d 44 b1 00 3e ab 42 17 bc 9a 22 35 be
       0.07962373 0.12567621 -0.0092322035 -0.1768898
0003d0 85 d6 bc 3c 58 07 c6 bd 84 f6 20 be dd e2 4d 3d
       0.02305151 -0.096693695 -0.15719038 0.05026518
0003e0 d1 96 d9 b9 8b fe 72 3d b1 a1 a2 3c 3c a1 49 3d
       -0.00041501832 0.059324782 0.019852491 0.04922603
0003f0 49 73 d5 3c 2a b8 3e bd de c1 47 bd 42 b7 70 3d
       0.026055949 -0.04656235 -0.04876887 0.05876852

decoder_layers.0.bias f4 [29]
000000 74 be 54 3f 80 3a 15 3f b4 5c c5 3d ea 74 68 3e
       0.8310311 0.5829239 0.09636822 0.22700849
000010 cf 10 e8 3e a5 fc e6 3e 48 72 61 3d 28 fb 38 3e
       0.45325324 0.45114627 0.055040628 0.18064559
000020 80 02 01 3f eb 25 b2 3e 89 d7 be be e1 5c 3a bd
       0.5039444 0.34794554 -0.37273815 -0.045498732
000030 d9 96 e7 3e d4 84 06 3e c4 09 eb 3e c2 f9 e5 3e
       0.45232275 0.13136607 0.45905888 0.44917113
000040 d9 53 85 3b 3a 7f e1 be 73 b9 e8 3e b1 74 fa 3e
       0.0040688333 -0.4404238 0.45453987 0.48917153
000050 1e b8 fc 3e dd 17 5b 3e 99 f9 17 be 9f fd 8c 3e
       0.4935922 0.21395822 -0.14841308 0.27537248
000060 74 90 d4 be e1 17 c9 3d 72 67 b7 be 78 19 9a bb
       -0.4151646 0.09819008 -0.3582111 -0.004702743
000070 21 a9 6a 3f
       0.9166432
